data.pth (torch, 5079 bytes, 6 tensors)

l1.weight f4 [8, 54]
00000000: 8d15 c3be 7ddb 853e 791a aabe b807 ca3e
00000010: f27b 7a3e 4237 ecbd f1a7 a5be ae8e fdbe
00000020: 412c 2abf f8f1 05bf a279 313f d832 153f
00000030: 2a9e 99bd d78b 223f 2716 353e 6eb1 f03e
00000040: c8c9 163f a468 f0bb d077 b4bd 71b3 3d3f
00000050: 6cc5 4fbe 5ae4 663f 632b 5b3f 9c20 513f
00000060: 93de 653e 7476 c13e 4397 d5bd 3fbe d33e
00000070: ba8b 25bd 67b3 b63e 68e2 bd3d f886 2e3f
00000080: 333b f5bd 9f03 e1be 06e6 823e 2aa0 cc3e
00000090: 0fc7 b0bc 138f dabe 902c 5bbe 5673 a0be
000000a0: a259 043e 1c72 11be ab78 ea3e d543 993e
000000b0: 61df 983e 1d76 993e 75b9 58bf c0fc c9be
000000c0: 75cd a33e b3c1 7dbe 7a9d a83e 340c 8dbe
000000d0: 9af4 b3be d2fc 06be 9c3b 28be 21b4 a7be
000000e0: ce3f ae3e 5d98 18bd 273f 973e 91a2 2c3e
000000f0: 4b2c cd3e 3e24 e43e e69c 963e b8f3 da3e
00000100: 8291 b03e 922d 11be a84d 043f 0ec6 60be
00000110: f2f9 fdbd 2b2d 26be 358c b23e 54c6 7b3d
00000120: 0c3c a73e 6ae7 d63e 7a35 6cbd cbd5 d23d
00000130: b80d b33e 3327 97be 85a6 f0bd 5662 c73d
00000140: 440e b43e 3361 a2be 2570 803e d284 acbe
00000150: 542c 62bd 9351 1dbe bb89 0abe 7da0 073f
00000160: f476 723c e5ba 24be fc14 bf3e c1cf af3e
00000170: 4020 ed3e dd75 c93e 7413 09bd 3081 963e
00000180: f8c4 8a3c 1e79 b03b cffa ee3e 6988 5e3d
00000190: 3f87 fdbe c095 173d d3f8 363e ca4c ee3e
000001a0: f4bf f3bd c3be ed3d d04c 163f 4c8c a33e
000001b0: 4f0a 38be 1ca5 be3e 97a5 0ebe f501 a5be
000001c0: 7664 65be e9c6 613f 6661 ba3d 7dc2 c3be
000001d0: f974 093f 759e 11be f25f 98be 6d52 253f
000001e0: 57fd 3d3f 35dc 0a3f 0b31 063f cf8f e63e
000001f0: d2e0 73be b6a3 523f 74b2 013f ba44 0cbf
00000200: 302e 67be d0ce d8be 5593 0bbf bac3 873e
00000210: 5625 c73e c3d3 99be 1638 cb3e b8c9 203f
00000220: 417a 023f c77e fb3e b07f 103f 5b26 fd3e
00000230: a417 27be 0346 f2bd 7e6b 213f 737f 843e
00000240: da29 e63e 6233 be3e 3a4b 943d 94b8 8e3e
00000250: 7215 043f 0308 ea3e d7ce ad3e 02b2 a43e
00000260: 7f41 ef3e ba77 013f f7f7 d3be efe6 29bd
00000270: ee49 0a3e d47f 283f 8c25 b33e 9bc6 013f
00000280: d8d0 953e 751e 443e ab2c 033f a9fc c9bd
00000290: 2ce2 b83e 5eb5 7c3e f84b 963d 0c9a 273f
000002a0: d689 b83e 41a2 b43e fad5 023f 3912 ce3e
000002b0: ef48 213e 8694 9bbe 5408 61be 02e8 8cbe
000002c0: 7899 98be e958 57be 88e6 993e d43d 723f
000002d0: 6321 93be 39b2 6f3e de3e d13e af14 803e
000002e0: 859e 883e e66e 18be f04c ae3e bc2d 823e
000002f0: 0736 c0be 9ab0 ddbe 4423 72be ce1c bebe
00000300: 04e0 e93e 8282 77be 591d b83e af69 b83e
00000310: 556c 43be d555 8dbe b468 11be 2f99 a73e
00000320: aa21 dc3e 9225 9e3e 4f8d d23e 8eb0 f4be
00000330: 0d6d 9bbe a2c0 c0be a924 e0bd dc65 5abe
00000340: 473a 9e3e d00e c43e fcb3 963d 6b7e b3be
00000350: 6b8c d1be 9ffa 9cbe b8b8 e73e e30c b43e
00000360: 8152 953e 16be 0d3f 5467 d93e 6784 933e
00000370: 7b29 b73e c9fd 0bbf aef8 ca3e 90ce e13e
00000380: d924 e73e dc42 033f 729b ab3e 907f 86be
00000390: 3d84 2a3e 1e12 35be 56fc e93e 2654 42be
000003a0: 2ca0 853e d40c 0cbf f94e c4be 8303 c53e
000003b0: 0a63 743e 3223 d33e d839 d93e 81a1 f5bd
000003c0: f7ab ac3e 8b34 ff3d 36b3 7fbe 1c3a 233f
000003d0: 0f52 66be 3673 043f e3a7 c1be 0214 7bbe
000003e0: 14dd 883d 01e3 023f 312f 193f e53f afbe
000003f0: 4947 45bd a8a0 a73e 8d90 933e 9d49 c93e
-0.3810238 0.2614402 -0.33223322 0.39459014 0.24461344 -0.11533977 -0.32354692 -0.49522918
-0.66473776 -0.5232234 0.6932622 0.58280706 -0.075008705 0.6349463 0.17684232 0.47010368
0.58901644 -0.007336693 -0.08811915 0.7410193 -0.20290154 0.90192187 0.8561308 0.8169038
0.22448187 0.37785685 -0.104292415 0.41356084 -0.040416457 0.35683748 0.09271699 0.68174696
-0.11974182 -0.43948075 0.2556612 0.39965945 -0.021579294 -0.42687282 -0.21403718 -0.31337994
0.12924817 -0.14203686 0.45795187 0.29934564 0.29857925 0.29972926 -0.84657985 -0.39450645
0.3199269 -0.24780922 0.32932645 -0.27548373 -0.35147554 -0.13182381 -0.16428989 -0.32754615
0.34033054 -0.03725468 0.2954037 0.16858889 0.40072855 0.445589 0.2941658 0.42764068
0.34486014 -0.1417754 0.51680994 -0.21950552 -0.12401189 -0.16228168 0.34872594 0.061468437
0.32663 0.4197343 -0.057668187 0.10294684 0.34971404 -0.29522094 -0.11750511 0.09735553
0.35167134 -0.31714782 0.2508556 -0.33695084 -0.055218056 -0.1536315 -0.13529103 0.5297926
0.014798868 -0.1608692 0.37320697 0.3433819 0.46313667 0.39347735 -0.033465818 0.29395437
0.016939625 0.005385532 0.46675727 0.05432931 -0.49517247 0.037008047 0.17868356 0.4654296
-0.119018465 0.116086505 0.58710957 0.31942976 -0.17972682 0.37235343 -0.13930355 -0.32228056
-0.22401604 0.8819414 0.091006085 -0.3823432 0.5369411 -0.14220603 -0.297607 0.64578897
0.7421469 0.5424226 0.52418584 0.45031592 -0.23816231 0.82281053 0.5066292 -0.5479237
-0.22576213 -0.42345285 -0.54521686 0.26516515 0.38895673 -0.30044374 0.39691228 0.628078
0.50967795 0.4912016 0.56444836 0.49443325 -0.16317612 -0.1182976 0.63054645 0.25878486
0.44953805 0.37148577 0.07240911 0.27875197 0.5159522 0.45709237 0.3394687 0.3216706
0.46729657 0.50573313 -0.4140012 -0.04148 0.13504764 0.6582005 0.34989583 0.5069367
0.29260898 0.19152243 0.5124003 -0.09862644 0.36110055 0.24678561 0.07338709 0.6546943
0.3604266 0.3528004 0.5110775 0.40248278 0.15750478 -0.30386752 -0.21975833 -0.27520758
-0.29804587 -0.2103001 0.30058694 0.9462559 -0.2873641 0.2340783 0.40868276 0.2501578
0.2668344 -0.14886054 0.34043074 0.25425518 -0.3754122 -0.432988 -0.23646265 -0.3713135
0.45678723 -0.24170879 0.3595989 0.3601813 -0.19084294 -0.27604547 -0.14200097 0.32734057
0.42994434 0.3088804 0.41123435 -0.4779095 -0.30356637 -0.37646967 -0.10944492 -0.21327919
0.30903837 0.3829255 0.07358548 -0.35057387 -0.40927443 -0.3065996 0.45258117 0.35166082
0.29164508 0.55368173 0.42461646 0.28811952 0.35773835 -0.5468412 0.39642853 0.44102907
0.451453 0.51273894 0.33517033 -0.26269197 0.16652007 -0.17682692 0.4570033 -0.18977413
0.26098764 -0.54707074 -0.383415 0.38479242 0.23865905 0.4123779 0.42426944 -0.11993695
0.3372495 0.12461194 -0.24970707 0.6376054 -0.2249224 0.517383 -0.378234 -0.24519351
0.06682792 0.5112763 0.59837633 -0.34228435 -0.048163686 0.32739758 0.2882122 0.39313975

l1.bias f4 [8]
00000000: 016b 7a3f 77ea 3c3e 8450 0c3f 6d16 8a3f
00000010: 230d 0c3f 831f 183f 9a70 d13e aaaa 7f3f
0.97819525 0.18448816 0.5481036 1.0788094 0.54707545 0.59423083 0.4090622 0.9986979

l2.weight f4 [8, 8]
00000000: 719c 703f 2d6a 8d3e ef73 8a3f f309 d83e
00000010: 467a 8ebf 943d 123f 8d96 65bf ba0b 3f3d
00000020: 65bd 873f 7f3f 45bf ac11 383f 5703 2dbf
00000030: 837e 193f e09f 9dbe 7ac9 303f e8bc 81be
00000040: e6e4 123e c055 393e d04e 04be 612d b2be
00000050: ff78 963c 45cd dc3c 2fd8 12be 3f2e b6bd
00000060: cacf 933f c77a 5f3f b515 76bf 0466 e03d
00000070: 2ef0 ae3e dce9 c43f 9a93 c83f 44ec 66be
00000080: 9ad2 bbbd e021 0d3f bd7c b13f f65e 2b3f
00000090: 645c ecbd 6864 23be 0491 e63e ed72 39bf
000000a0: f09f fd3c 2ad6 20be aa98 8cbe 00eb 173b
000000b0: 479f afbe 8899 d1bd 4956 9c3e 108b 6bbe
000000c0: 42e2 ad3e a7e9 09be e459 08bf 0386 d43f
000000d0: cc3e 4d3f 4f49 5a3e be27 3e3e c8ac d23f
000000e0: 1dee 93bf 6017 653f 37e8 163f 2c88 ef3e
000000f0: ff5d 483f de97 403f cdff e73e 346f 71bf
0.9398871 0.27620068 1.081663 0.4219509 -1.1131065 0.5712521 -0.8968285 0.046642043
1.0604674 -0.7705001 0.71901965 -0.6758322 0.59958667 -0.30786037 0.6905743 -0.25339437
0.1434513 0.18099117 -0.1292069 -0.34800246 0.018368242 0.026953349 -0.1434028 -0.088955395
1.1547787 0.8729672 -0.9612687 0.10956958 0.34167618 1.5383868 1.5670044 -0.22551066
-0.091710284 0.55129814 1.3866192 0.66941774 -0.115410596 -0.1595627 0.45032513 -0.7244099
0.030960053 -0.15706697 -0.27460223 0.0023180842 -0.34301206 -0.10234362 0.3053458 -0.23002267
0.33961684 -0.13468038 -0.5326216 1.6603397 0.80173945 0.21317028 0.18569848 1.6458979
-1.1557041 0.8948879 0.5894808 0.46783578 0.78268427 0.7523173 0.45312348 -0.9431031

l2.bias f4 [8]
00000000: ecf3 d03e 0a8a d93c 5943 bcbe f2ec 02be
00000010: cf86 b93e dcb7 88bd a1ac 293f 0645 8e3e
0.40811098 0.02655508 -0.36770132 -0.127857 0.36235663 -0.066756934 0.66279036 0.27787036

l3.weight f4 [7, 8]
00000000: 03ec 383f c277 1d3f cf25 bbbb 72b3 22bf
00000010: 7510 bd3e 5a5b 673e fbc7 aebf 4f78 71bf
00000020: 7d2e 65bf 5b47 5c3f 7b08 9f3e 2325 96bd
00000030: d695 0b3f 20ad 8ebe 342b 89bf 9dec c23c
00000040: b5c1 1c3f 2969 6fbf 540a 613e 9c17 82bf
00000050: 8c43 213f ff1f a93e d5bc ebbc 7d88 4cbf
00000060: 77f9 0abf 8ce6 03be 58d1 91be 41fe 4b3f
00000070: 9d15 87bf 1652 283e 0c5e 673d 22ef 0ebf
00000080: 9dec 503f ee1f 99bf 86a3 9abe 7c29 a6bd
00000090: 9946 b53e c262 7fbe 0b85 bbbf ddc5 de3e
000000a0: d0b3 82bf 5624 50bf a5d4 d93d c657 0e3e
000000b0: c027 433e eff9 a53e 72c7 cbbe d802 473f
000000c0: 6d26 c5bf ad55 96bf 0401 a8be 27fb 63bf
000000d0: bb20 8bbf 8652 4e3e 4624 3c3f 8612 81be
0.72235125 0.6151086 -0.0057112942 -0.6355506 0.36926618 0.22593442 -1.3654779 -0.943242
-0.8952406 0.8604638 0.31061158 -0.07331302 0.54525506 -0.2786646 -1.071631 0.023794467
0.61233073 -0.93519837 0.21976596 -1.0163455 0.62993693 0.33032224 -0.028776566 -0.79895765
-0.54286903 -0.12880915 -0.2848003 0.79684836 -1.0553471 0.16437563 0.056486174 -0.5583364
0.81611043 -1.1962869 -0.30202883 -0.08113381 0.35405424 -0.24940017 -1.4649976 0.43510333
-1.0211124 -0.81305444 0.10636262 0.1390067 0.19058132 0.32417247 -0.39800602 0.77738714
-1.5402352 -1.1744896 -0.32813275 -0.89055103 -1.0869364 0.20148668 0.7349285 -0.25209445

l3.bias f4 [7]
00000000: b20a cd3d 69cd f4bb 9881 bf3d 5f1f d5bd
00000010: 6008 8dbe 7834 40be 5bd7 513f
0.100118056 -0.007470776 0.0935089 -0.10406374 -0.27545452 -0.18770015 0.8196923
